mental_health_model.pth (torch, 51926 bytes, 14 tensors)

layer1.weight f4 [128, 12]
0.021874297 0.02323095 -0.014406932 0.04477596 0.0041034045 0.05517785 0.049381472 0.06271789
-0.044537675 -0.009934079 0.003992457 -0.00716786 -0.0050740256 -0.040952247 0.028223528 -0.03648677
0.005598314 -0.027917715 -0.03634561 -0.009067043 -0.0032309978 0.02829163 -0.03949634 0.028678063
-0.0012016165 0.03357344 -0.008506673 -0.0017385995 -0.00017236006 0.022015994 0.00022003945 -0.024652716
0.024948392 -0.0055025658 -0.024016825 -0.0041812896 0.014708628 0.019942094 0.078926 0.07913475
0.006072834 -0.027453411 0.042652078 -0.017319014 -0.09101657 -0.08225417 -0.010895399 -0.0020339095
-0.009858663 -0.01642311 -0.024656722 0.0037600505 -0.005162129 -0.0014569385 -0.0050182715 -0.011294893
-0.011596457 -0.026407463 0.012089728 -0.019862318 0.020538319 -0.014791947 -0.052050248 -0.012145145
0.013983532 0.015046917 0.009488721 0.063754566 0.017348872 0.0630907 -0.0066009755 0.005254945
0.008982418 0.026623541 0.009583724 0.019308902 0.009775832 -0.034180414 0.008911787 0.010586264
-0.07633113 0.03518069 -0.025801953 0.004863327 -0.0026622936 0.032407675 -0.013461705 0.02510106
0.0029200695 -0.019530013 0.013408254 -0.043643672 0.07553283 -0.0060539134 -0.008215837 0.05792252
-0.006330633 -0.03362621 -0.02990998 0.008563216 -0.0028126407 0.045268357 0.01812652 -0.07339445
0.054031916 0.063560545 0.014920897 -0.0012493503 0.04399645 -0.00920246 -0.006408045 0.010219753
-0.005139135 0.050592504 -0.04978771 -0.0017786064 -0.01712023 0.0026728662 0.008232631 0.017069822
-0.010661147 -0.01309625 0.00046045077 0.013031229 -0.043551542 -0.017476609 0.0020713373 0.04046676
-0.055822138 0.075102195 0.010579124 -0.036404658 0.012751309 0.047340788 -0.08897327 -0.0038363999
0.0064786184 0.027081227 0.0018701218 0.005563508 0.106174916 0.012535261 0.009505535 -0.057922933
0.05158055 -0.009520506 4.0356663e-05 -0.02755616 0.026942117 -0.059194256 -0.031669226 0.0016930772
0.031948347 -0.043980777 0.015713708 -0.0046502873 0.0020344732 -0.0018113232 0.05202574 -0.04294726
-0.0012477475 0.012372167 0.06961783 0.030180864 0.011126046 -0.015833171 0.008073821 0.056071
-0.015000433 0.0075074644 0.0053776936 0.04739448 0.021446422 0.017894128 0.011111282 -0.007646253
0.07091566 -0.039993662 0.025295816 0.010372795 -0.01613365 0.053753976 0.0064924783 -0.0039346595
-0.006155691 0.030609496 -0.0057148715 -0.048143197 0.0115300855 -0.060898505 0.020089632 0.0397399
-0.01824208 -0.023278683 -0.0004845536 -0.012489894 -0.015697176 -0.030272916 -0.02769537 0.003030244
0.028436052 -0.0001363869 -0.026109343 -0.019224642 0.03607842 -0.014165465 0.04307143 0.043983858
0.006897197 0.03619549 0.025822692 0.069785826 -0.08411841 -0.023161964 -0.00010842277 -0.035722062
0.0032750359 0.026783375 0.0055606468 -0.00905437 -0.001981582 -0.044099342 -0.008213684 0.0011353432
-0.03534882 -0.024123332 0.0010006095 0.0016200301 0.014003953 -0.008634367 0.039362155 0.026762694
0.007998354 0.00352345 -0.013125675 0.04411433 0.028191166 -0.0016285483 -0.020714272 0.022306895
-0.028165588 -0.024209121 -0.039729167 -0.024964694 -0.025051542 -0.010364146 -0.022543106 0.01791179
0.050015435 -0.010711303 -0.008134824 -0.04352298 0.02233448 0.05053036 0.0041770106 -0.02849065
00000000: ba31 b33c d54e be3c 0d0b 6cbc ff66 373d
00000010: da75 863b 2b02 623d 3a44 4a3d 3d72 803d
00000020: 236d 36bd 8cc2 22bc 28d3 823b 5ee0 eabb
00000030: 0344 a6bb 8bbd 27bd 0735 e73c 2773 15bd
00000040: 1072 b73b b1b3 e4bc 22df 14bd ef8d 14bc
00000050: 26bf 53bb d9c3 e73c eac6 21bd 42ee ea3c
00000060: 8f7f 9dba 4e84 093d 935f 0bbc b8e1 e3ba
00000070: 8dbb 34b9 e35a b43c 64ba 6639 7ef4 c9bc
00000080: 9260 cc3c de4e b4bb efbe c4bc 3303 89bb
00000090: 75fc 703c 9a5d a33c f4a3 a13d 6611 a23d
000000a0: a0fe c63b fae5 e0bc f2b3 2e3d 9be0 8dbc
000000b0: e566 babd e074 a8bd 9e82 32bc 574b 05bb
000000c0: 3b86 21bc c289 86bc e5fc c9bc 2e6b 763b
000000d0: 1427 a9bb bef6 beba 5070 a4bb 370e 39bc
000000e0: 11ff 3dbc 7754 d8bc ff13 463c 4db6 a2bc
000000f0: fa3f a83c ec59 72bc a432 55bd 6efc 46bc
00000100: 2f1b 653c 5887 763c 9576 1b3c c191 823d
00000110: 391f 8e3c b235 813d ff4c d8bb ac31 ac3b
00000120: fe2a 133c 9d19 da3c 0d05 1d3c b42d 9e3c
00000130: d02a 203c c300 0cbd be02 123c 0272 2d3c
00000140: 7f53 9cbd a119 103d 9e5e d3bc 8b5c 9f3b
00000150: e079 2ebb e9bd 043d 7c8e 5cbc bda0 cd3c
00000160: a35e 3f3b 68fd 9fbc 4bae 5b3c b5c3 32bd
00000170: f5b0 9a3d e85f c6bb b89b 06bc 2a40 6d3d
00000180: 3371 cfbb a3bb 09bd c605 f5bc bb4c 0c3c
00000190: 4854 38bb 506b 393d 117e 943c d44f 96bd
000001a0: 9250 5d3d 082c 823d c776 743c 3dc1 a3ba
000001b0: 9f35 343d eac5 16bc 94fa d1bb c070 273c
000001c0: 3066 a8bb 163a 4f3d 33ee 4bbd 2120 e9ba
000001d0: b93f 8cbc 412b 2f3b 28e2 063c 03d6 8b3c
000001e0: 17ac 2ebc a791 56bc a868 f139 f080 553c
000001f0: 1a63 32bd 1b2b 8fbc 46bf 073b 79c0 253d
00000200: c1a5 64bd 2ecf 993d 1054 2d3c 0d1d 15bd
00000210: deea 503c 6ae8 413d 9e37 b6bd 1c6c 7bbb
00000220: 974a d43b 73d9 dd3c e01e f53a 164e b63b
00000230: 3c72 d93d b260 4d3c 1abd 1b3c 9940 6dbd
00000240: 2046 533d e5fb 1bbc a344 2938 75bd e1bc
00000250: b7b5 dc3c ad75 72bd 97b7 01bd 3eea dd3a
00000260: 45dc 023d 3025 34bd 09ba 803c 7061 98bb
00000270: cc54 053b ec69 edba f118 553d 77e9 2fbd
00000280: 758b a3ba a1b4 4a3c cb93 8e3d dc3d f73c
00000290: 054a 363c 91b4 81bc 0f48 043c b4aa 653d
000002a0: 60c4 75bc 2d01 f63b 5d37 b03b b720 423d
000002b0: 68b0 af3c b596 923c 180c 363c 6b8d fabb
000002c0: 3b3c 913d 65d0 23bd 2c39 cf3c a8f2 293c
000002d0: b72a 84bc 212d 5c3d dbbe d43b 51ee 80bb
000002e0: aeb5 c9bb c4c0 fa3c d143 bbbb cd31 45bd
000002f0: afe8 3c3c b670 79bd 0393 a43c 4ec6 223d
00000300: 6a70 95bc f0b2 bebc af0b feb9 6aa2 4cbc
00000310: 5d97 80bc e8fe f7bc 67e1 e2bc 0f97 463b
00000320: b9f2 e83c 1403 0fb9 43e3 d5bc ff7c 9dbc
00000330: f7c6 133d 4416 68bc ab6b 303d 6b28 343d
00000340: e201 e23b b941 143d 1c8a d33c dfeb 8e3d
00000350: 4646 acbd 29be bdbc 0861 e3b8 4c51 12bd
00000360: fca1 563b cf68 db3c 1636 b63b c858 14bc
00000370: 6edd 01bb 83a1 34bd b092 06bc cccf 943a
00000380: edc9 10bd 4b9e c5bc e226 833a 3157 d43a
00000390: d670 653c 2977 0dbc 363a 213d 703d db3c
000003a0: 870b 033c afe9 663b 120d 57bc 3ab1 343d
000003b0: 29f1 e63c 0375 d5ba fab0 a9bc f3bc b63c
000003c0: 85bb e6bc 3552 c6bc 0dbb 22bd c282 ccbc
000003d0: e438 cdbc 61ce 29bc 52ac b8bc bfbb 923c
000003e0: fcdc 4c3d 767e 2fbc ed47 05bc 2745 32bd
000003f0: cdf6 b63c ecf8 4e3d 4edf 883b 3965 e9bc

layer1.bias f4 [128]
-1.1120009e-09 -3.5439682e-06 4.8307396e-07 0.0041896277 -0.0038199725 0.00020070457 2.1597661e-10 2.875352e-09
-0.0013790736 -2.6091573e-10 0.0002877303 -8.7054195e-07 -0.010768915 -0.0010099292 0.02819343 -4.5176912e-05
-9.684515e-10 -0.044693325 -0.032113988 0.0011495682 -1.3159324e-07 2.0220368e-09 -9.043884e-10 -4.1475912e-05
6.761734e-06 9.708717e-10 -0.005672041 0.011190951 1.1360531e-06 -1.8402841e-09 7.9277995e-10 -0.0032096389
0.031255398 -0.047844213 3.3865863e-09 0.040082335 0.00023321708 -0.037884355 -1.1471248e-09 -4.8579034e-09
-0.0002235277 1.599622e-06 3.1037806e-09 -0.01922666 -0.020250298 -0.00014307201 -0.019119922 -8.055242e-10
0.0022793056 3.4071197e-09 0.02231708 2.1768607e-09 -0.016682386 2.3061093e-10 2.4565532e-09 -2.1403174e-08
-1.2100198e-09 0.0024202056 -3.6851633e-09 -0.0027122123 0.01654121 8.7948246e-11 -3.952394e-09 0.045075208
-0.0006962729 1.3684939e-05 -7.987467e-10 -0.0022535606 -2.531052e-07 5.349038e-09 0.035809476 9.255643e-09
-0.00026372977 -0.007936326 -0.027252447 -0.00029692263 -7.063153e-10 0.04058072 0.044219572 -0.0077624177
0.0009000636 0.007166608 -5.4154087e-05 4.4431086e-05 0.0002988644 4.2150017e-10 5.547073e-09 -2.6905958e-05
3.9463752e-09 -1.6381237e-09 -3.1872527e-10 -0.015904479 -0.0043842867 1.7001165e-09 -3.0017562e-09 -1.1894645e-09
-9.715752e-07 -1.2568928e-09 -2.5636742e-09 1.2475792e-09 -0.0048326985 0.0059617036 3.1709754e-10 0.0041970694
0.010401555 0.04781757 -0.0026550575 6.1127874e-05 0.011932999 1.2765948e-07 0.0002700969 0.0067559313
-0.04818481 -0.033517294 -0.005500903 0.0006344129 -0.00011454821 0.0005234304 -7.4634895e-06 0.0006934519
0.0084802285 0.0013768085 0.01923626 0.04378681 -0.00029838007 -2.5911047e-09 0.04655219 -0.005392898
00000000: 0ed5 98b0 e9d4 6db6 97ac 0135 2549 893b
00000010: 8158 7abb 3974 5239 0378 6d2f ba97 4531
00000020: 08c2 b4ba a070 8faf 82da 9639 30af 69b5
00000030: 1a70 30bc 9a5f 84ba e8f5 e63c 577c 3db8
00000040: 5c1a 85b0 5910 37bd f589 03bd 1cad 963a
00000050: 134c 0db4 0cf4 0a31 ad98 78b0 6cf6 2db8
00000060: dae2 e236 836f 8530 87dc b9bb 405a 373c
00000070: 7d7a 9835 3eed fcb0 eeea 5930 ce58 52bb
00000080: a905 003d 4bf8 43bd 75b9 6831 602d 243d
00000090: bc8b 7439 a02c 1bbd dea8 9db0 92ea a6b1
000000a0: c362 6ab9 98b2 d635 494a 5531 3a81 9dbc
000000b0: f4e3 a5bc 9a05 16b9 62a1 9cbc ba6b 5db0
000000c0: 6760 153b af22 6a31 4fd2 b63c bd97 1531
000000d0: 80a9 88bc 358f 7d2f 24d0 2831 14da b7b2
000000e0: c94d a6b0 509c 1e3b 143e 7db1 5fbf 31bb
000000f0: 6e81 873c 7666 c12e a0cd 87b1 c8a0 383d
00000100: 1586 36ba 5e98 6537 cd8e 5bb0 79b0 13bb
00000110: 84e2 87b4 a3ca b731 f5ac 123d c002 1f32
00000120: 3645 8ab9 5d07 02bc 8640 dfbc 48ac 9bb9
00000130: 8526 42b0 f837 263d 951f 353d e15b febb
00000140: 3ff2 6b3a ddd5 ea3b 8223 63b8 845b 3a38
00000150: e7b0 9c39 e0b8 e72f 9298 be31 1bb4 e1b7
00000160: af98 8731 5b24 e1b0 9838 afaf 1c4a 82bc
00000170: 10aa 8fbb 88a9 e930 7447 4eb1 907a a3b0
00000180: 1267 82b5 fcbe acb0 a22c 30b1 4a77 ab30
00000190: 9d5b 9ebb 655a c33b 8353 ae2f 9287 893b
000001a0: 496b 2a3c 5bdc 433d 7900 2ebb c731 8038
000001b0: a082 433c c512 0934 cb9b 8d39 dc60 dd3b
000001c0: 6f5d 45bd 6e49 09bd eb40 b4bb bb4e 263a
000001d0: 9a39 f0b8 d236 093a e36e fab6 c5c8 353a
000001e0: a8f0 0a3c 0776 b43a 5c95 9d3c cc59 333d
000001f0: e56f 9cb9 320f 32b1 82ad 3e3d e8b6 b0bb

bn1.weight f4 [128]
0.6737494 0.67325807 0.67209697 0.67636085 0.67364514 0.6754978 0.67327994 0.67548907
0.67805463 0.6739726 0.677612 0.67185503 0.674996 0.67461663 0.6754669 0.6734819
0.67425996 0.67182827 0.6734567 0.6747656 0.67339164 0.67431504 0.6738225 0.6783639
0.6753926 0.67646444 0.67565876 0.67696947 0.6727612 0.673356 0.67273486 0.6746067
0.67337495 0.6754285 0.6755516 0.6756857 0.675115 0.6734617 0.67376626 0.6772659
0.66992456 0.6690722 0.67367685 0.6748286 0.6751631 0.67449915 0.67352885 0.67558277
0.67132264 0.6746217 0.6746744 0.6744759 0.67352706 0.6790351 0.6730524 0.68151504
0.67455083 0.6713085 0.6733159 0.67382246 0.6718317 0.6751182 0.67640436 0.6739093
0.67672044 0.6694705 0.674204 0.67466617 0.6720256 0.67591935 0.6706744 0.67535496
0.6763027 0.6729772 0.67465144 0.67639285 0.67379874 0.6745878 0.67092896 0.6743675
0.6713185 0.6771317 0.6773 0.6734916 0.6764061 0.67555135 0.6732329 0.6791808
0.6759454 0.67680496 0.6765674 0.67430484 0.6731992 0.67525935 0.67403454 0.67253864
0.67183185 0.6749228 0.6750537 0.6736716 0.6726768 0.67419016 0.67452455 0.6755328
0.67213964 0.67316467 0.6714933 0.67267287 0.6756832 0.6747315 0.6727736 0.6742535
0.67257655 0.6765382 0.6740009 0.6710965 0.6757116 0.67268664 0.6754175 0.67565256
0.67395955 0.6740846 0.67400074 0.67212576 0.6731986 0.67121243 0.67697597 0.67199117
00000000: d77a 2c3f a45a 2c3f 8c0e 2c3f fc25 2d3f
00000010: 0274 2c3f 6ced 2c3f 135c 2c3f daec 2c3f
00000020: fd94 2d3f 7889 2c3f fb77 2d3f b1fe 2b3f
00000030: 8acc 2c3f adb3 2c3f 66eb 2c3f 4f69 2c3f
00000040: 4d9c 2c3f f0fc 2b3f a967 2c3f 70bd 2c3f
00000050: 6563 2c3f e99f 2c3f a27f 2c3f 42a9 2d3f
00000060: 88e6 2c3f c62c 2d3f f9f7 2c3f df4d 2d3f
00000070: 143a 2c3f 0f61 2c3f 5a38 2c3f 06b3 2c3f
00000080: 4d62 2c3f e2e8 2c3f f3f0 2c3f bdf9 2c3f
00000090: 56d4 2c3f fc67 2c3f f27b 2c3f 4c61 2d3f
000000a0: 2d80 2b3f 5148 2b3f 1676 2c3f 91c1 2c3f
000000b0: 7dd7 2c3f faab 2c3f 636c 2c3f fef2 2c3f
000000c0: cddb 2b3f 02b4 2c3f 76b7 2c3f 74aa 2c3f
000000d0: 456c 2c3f 3fd5 2d3f 294d 2c3f c577 2e3f
000000e0: 5daf 2c3f e0da 2b3f 6e5e 2c3f a17f 2c3f
000000f0: 2afd 2b3f 8cd4 2c3f d628 2d3f 5285 2c3f
00000100: 8d3d 2d3f 6b62 2b3f a298 2c3f ecb6 2c3f
00000110: df09 2c3f 0d09 2d3f 51b1 2b3f 10e4 2c3f
00000120: 2c22 2d3f 3c48 2c3f f5b5 2c3f 1528 2d3f
00000130: 137e 2c3f c9b1 2c3f 00c2 2b3f 59a3 2c3f
00000140: 87db 2b3f 8158 2d3f 8863 2d3f f269 2c3f
00000150: f328 2d3f eff0 2c3f fe58 2c3f cbde 2d3f
00000160: c20a 2d3f 1743 2d3f 8533 2d3f 3e9f 2c3f
00000170: c856 2c3f ccdd 2c3f 878d 2c3f 7e2b 2c3f
00000180: 2cfd 2b3f bec7 2c3f 52d0 2c3f be75 2c3f
00000190: 8c34 2c3f ba97 2c3f a4ad 2c3f b8ef 2c3f
000001a0: 5811 2c3f 8554 2c3f fce6 2b3f 4a34 2c3f
000001b0: 93f9 2c3f 34bb 2c3f e43a 2c3f e19b 2c3f
000001c0: fa2d 2c3f 9c31 2d3f 538b 2c3f fbcc 2b3f
000001d0: 6ffb 2c3f 3135 2c3f 29e8 2c3f 91f7 2c3f
000001e0: 9d88 2c3f cf90 2c3f 508b 2c3f 6f10 2c3f
000001f0: be56 2c3f 94d4 2b3f 4c4e 2d3f 9d07 2c3f

bn1.bias f4 [128]
-0.0041905353 -0.0013347394 -0.0032611752 0.0015307516 0.0015469426 -0.0066934144 -0.0038182973 -0.016541708
-0.0102967955 -0.0015637894 -0.01402983 -0.0030404143 -0.0034015295 -0.0062769316 -0.013666967 -0.0022281378
-0.0037344387 -0.006710701 -0.0022676466 -0.010770345 -0.005205764 0.003516553 -0.004527811 -0.010228429
-0.005083668 -0.010031337 -0.0034700318 -0.0047808825 -0.010387564 0.0001993882 -0.005690214 -0.0024063485
-0.009095804 -0.004470145 0.002569689 -0.0032671976 0.00022403168 -0.007837942 -0.005354659 -0.0026232537
-0.004391185 -0.0068015317 -0.008054125 -0.013280554 -0.0018507626 -0.0088321455 0.00056861417 -0.0032772955
-0.0053301677 -0.0014707678 -0.0097101135 -0.005455287 -0.020729233 -0.0037499382 -0.014769792 -0.010439469
-0.001588767 -0.014026286 0.003121901 -0.0053419545 -0.00917269 -0.0027596185 -0.0072974227 -0.009690954
-0.014091761 -0.015071027 -0.010651718 -0.003419852 0.011286639 -0.007212814 -0.009031094 -0.009425704
-0.0004470767 -0.0064980653 -0.0044237464 -0.013200276 -0.001566124 -0.006263259 0.0036107968 -0.011803263
-0.0009469099 -0.003909484 -0.0075422577 -0.0017678187 -0.0055057365 -0.003271657 -0.002398933 -0.010843654
-0.006955823 -0.008413911 -0.016305247 -0.0032452443 -0.0020101306 -0.012228352 -0.002109598 -0.0044270568
-0.008411884 -0.008337011 0.0005432784 -0.0012456273 0.0014677579 -0.006011401 -0.0040601157 -0.011592343
-0.01203252 5.0208524e-05 -0.0025075194 -0.00413046 -0.01508244 -0.00022069615 -0.00452728 -0.007690437
-0.0018257061 -0.01336976 4.452635e-06 -0.00027655056 -0.013851852 -0.005381213 -0.0014259686 -0.010537488
0.004096801 -0.0049158484 -0.0060893656 -0.006024694 0.00034115877 -0.008254274 -0.010518345 0.005587045
00000000: c250 89bb 6cf2 aeba 71b9 55bb 80a3 c83a
00000010: c8c2 ca3a 6e54 dbbb 663c 7abb 7a82 87bc
00000020: e4b3 28bc 11f8 ccba 5fdd 65bc b041 47bb
00000030: 32ec 5ebb b8ae cdbb 6aeb 5fbc f305 12bb
00000040: 7cbd 74bb 71e5 dbbb cc9c 14bb 1a76 30bc
00000050: 1d95 aabb f875 663b 085e 94bb 2495 27bc
00000060: e694 a6bb 7a5a 24bc 7969 63bb f3a8 9cbb
00000070: 9a30 2abc dd12 5139 fa74 babb d4b3 1dbb
00000080: 9106 15bc 4b7a 92bb 3a68 283b 7b1e 56bb
00000090: 0cea 6a39 b66a 00bc 2376 afbb e5ea 2bbb
000000a0: eee3 8fbb 62df debb 73f5 03bc ae96 59bc
000000b0: 4a95 f2ba b4b4 10bc 0d0f 153a e5c7 56bb
000000c0: b0a8 aebb c7c6 c0ba 2b17 1fbc 44c2 b2bb
000000d0: 5ad0 a9bc 86c1 75bb fffc 71bc 4e0a 2bbc
000000e0: 2d3e d0ba 82ce 65bc cf98 4c3b 900b afbb
000000f0: 0d49 16bc b7da 34bb 381f efbb cfc6 1ebc
00000100: 21e1 66bc 78ec 76bc 8b84 2ebc 981f 60bb
00000110: 98eb 383c 7859 ecbb 27f7 13bc 456e 1abc
00000120: 9e65 eab9 b9ed d4bb 13f5 90bb f845 58bc
00000130: 6746 cdba 063c cdbb 1ea3 6c3b 7962 41bc
00000140: 0c3a 78ba 211b 80bb 0b25 f7bb 27b6 e7ba
00000150: 7769 b4bb 4c69 56bb 6b37 1dbb 95a9 31bc
00000160: aced e3bb 80da 09bc 9592 85bc 2aae 54bb
00000170: 65bc 03bb 6d59 48bc 2e41 0abb d810 91bb
00000180: 00d2 09bc f597 08bc cc6a 0e3a 5144 a3ba
00000190: c861 c03a 49fb c4bb b80a 85bb d0ed 3dbc
000001a0: 0c24 45bc fe96 5238 3255 24bb cf58 87bb
000001b0: 571c 77bc ac6a 67b9 9459 94bb 1000 fcbb
000001c0: 884c efba d60c 5bbc d867 9536 fdfd 90b9
000001d0: e1f2 62bc e354 b0bb 91e7 baba 6ea5 2cbc
000001e0: 753e 863b 2015 a1bb 4d89 c7bb cc6a c5bb
000001f0: 8edd b239 ef3c 07bc 2355 2cbc 8813 b73b

bn1.running_mean f4 [128]
0.0027250845 -0.0012727191 6.571406e-05 0.0057940283 -0.00542746 0.0010961606 0.00041902153 0.0020899714
4.387996e-05 0.0019083683 -0.0014941563 -0.0011789378 -0.011164971 0.0027739997 0.029706787 0.0018310883
-0.0034972408 -0.04353945 -0.033067383 0.0021633264 -0.0045881523 0.0006994555 0.0017096014 0.000990428
-0.0011799901 0.00029992656 -0.006318991 0.01095574 -0.0024679704 -0.002133217 0.001150711 -0.0037588903
0.029640645 -0.047728628 -0.0011392226 0.0418112 0.00079679996 -0.0376335 -0.0014402944 0.0011593837
0.00042426237 0.001185398 0.00029557978 -0.016468903 -0.018426668 -0.000831345 -0.018869815 -0.00038981112
-0.00016688183 0.00265134 0.022857334 0.0021446098 -0.016219663 0.005426787 -0.005180764 -0.0010934686
0.0026760015 0.0038459157 -0.0016389082 0.000584141 0.012981837 -0.0010174857 -0.0015913836 0.044557054
-0.0051169386 -0.00075486244 -0.00065956835 -0.0060373014 -0.0023920322 -0.0030071791 0.034136213 -0.0021290937
-0.0004898376 -0.0072416514 -0.026265098 -0.003961197 -0.0006632771 0.039810132 0.043175653 -0.009650998
0.000429364 0.0079617 -0.00045612874 -0.0017439363 -0.00020261947 0.003290135 0.0035512443 -0.00025937974
-0.00022218404 -0.0011120419 0.0009992218 -0.017510738 -0.0073056244 0.00044369814 0.0013280945 -0.0023068425
0.0011467854 -0.0016564967 -0.00047401898 0.0022343588 -0.006583488 0.007348649 -0.0016863233 0.0062776078
0.011391867 0.044865932 -0.0027108828 0.0005441564 0.011420408 0.00012283865 0.0006117936 0.0103172455
-0.04797684 -0.031894535 -0.003915535 -0.0004175122 -2.5089132e-05 -0.0026508074 0.0023238058 0.0033711686
0.0069119898 0.00087752496 0.018017089 0.043164365 0.0026024198 0.0013722182 0.05080284 -0.0067438134
00000000: 5597 323b 5ed1 a6ba f8cf 8938 d5db bd3b
00000010: d6d8 b1bb 0cad 8f3a 1eb0 db39 e7f7 083b
00000020: c00b 3838 3722 fa3a 91d7 c3ba 9786 9aba
00000030: 48ed 36bc fecb 353b a65b f33c 2101 f03a
00000040: f731 65bb 6c56 32bd aa71 07bd 98c6 0d3b
00000050: 3658 96bb aa5b 373a b414 e03a 40d1 813a
00000060: e6a9 9aba 763f 9d39 8a0f cfbb b47f 333c
00000070: acbd 21bb 71cd 0bbb 74d3 963a b757 76bb
00000080: f0d0 f23c 187f 43bd f851 95ba 3942 2b3d
00000090: 57e0 503a 9625 1abd 43c8 bcba 76f6 973a
000000a0: 886f de39 5b5f 9b3a 0cf8 9a39 cbe9 86bc
000000b0: 86f3 96bc 9eee 59ba df94 9abc 905f ccb9
000000c0: 00fd 2eb9 1bc2 2d3b 4e3f bb3c 958c 0c3b
000000d0: 19df 84bc 30d3 b13b 66c3 a9bb b852 8fba
000000e0: db5f 2f3b c20b 7c3b a2d0 d6ba 0a21 193a
000000f0: c5b1 543c 285d 85ba f995 d0ba 7581 363d
00000100: feab a7bb f6e1 45ba e2e6 2cba 8ed4 c5bb
00000110: a4c3 1cbb 1814 45bb 6ad2 0b3d 4488 0bbb
00000120: 7268 00ba 604b edbb e729 d7bc eecc 81bb
00000130: c6df 2dba f30f 233d f4d8 303d 381f 1ebc
00000140: 431c e139 ca71 023c 9024 efb9 cb94 e4ba
00000150: 4076 54b9 4e9f 573b febb 683b 5cfd 87b9
00000160: 13fa 68b9 efc1 91ba 52f8 823a ae72 8fbc
00000170: 0564 efbb 28a0 e839 7513 ae3a 652e 17bb
00000180: bc4f 963a ce1e d9ba c085 f8b9 526e 123b
00000190: 4dba d7bb f0cc f03b 9f07 ddba 64b4 cd3b
000001a0: f4a4 3a3c 57c5 373d 11a9 31bb b8a5 0e3a
000001b0: aa1c 3b3c 40ce 0039 c660 203a aa09 293c
000001c0: 5d83 44bd d8a3 02bd e34d 80bb 8ae5 dab9
000001d0: 8076 d2b7 2bb9 2dbb fe4a 183b d3ee 5c3b
000001e0: f97d e23b b409 663a 9398 933c 1ecd 303d
000001f0: 5c8d 2a3b 01dc b33a a416 503d 35fb dcbb

bn1.running_var f4 [128]
0.012877986 0.0082059065 0.0029210944 0.009061752 0.0050775767 0.008557105 0.0079452675 0.011103091
0.013246129 0.005771382 0.011826172 0.014298481 0.012004719 0.012897618 0.011686502 0.009067271
0.004608967 0.008915173 0.0053436416 0.01488292 0.008732305 0.013094587 0.01076244 0.011783775
0.008524848 0.017859505 0.0073050433 0.0066481996 0.013186952 0.005248322 0.008954097 0.012671149
0.012441327 0.008753139 0.010341035 0.010480477 0.014856086 0.010566372 0.008525402 0.010884023
0.024431968 0.0111675095 0.0065633375 0.023423381 0.0075908224 0.00995938 0.006229843 0.0061868476
0.013740998 0.007939093 0.02438714 0.009391102 0.027708547 0.021730248 0.016318459 0.008672331
0.007193056 0.031173762 0.008798801 0.008416631 0.019856207 0.014596718 0.007983533 0.011017327
0.015474807 0.010822854 0.005742418 0.008786281 0.0068252236 0.0066759554 0.01578384 0.015811143
0.011034515 0.008081937 0.008710609 0.01344607 0.011766804 0.009757591 0.012563337 0.011576525
0.011608734 0.0069474406 0.01260851 0.0069710417 0.010808453 0.016932081 0.015717147 0.008059608
0.011292216 0.011894292 0.0149133485 0.008959774 0.008278102 0.012413355 0.016601875 0.0118159745
0.006660208 0.008745029 0.006094359 0.010233253 0.009217411 0.010987349 0.01087862 0.009866506
0.023341617 0.010889871 0.00938335 0.0067042406 0.018079689 0.009921409 0.009855676 0.01498723
0.010262008 0.017485946 0.006214803 0.021914203 0.011346733 0.0052181343 0.006058133 0.013004654
0.0053927004 0.008962344 0.020399524 0.016135953 0.011261313 0.012485286 0.021366682 0.010964453
00000000: 30fe 523c 1172 063c d56f 3f3b be77 143c
00000010: cd61 a63b 1a33 0c3c de2c 023c bde9 353c
00000020: 4b06 593c dc1d bd3b 8fc2 413c 2d44 6a3c
00000030: 71af 443c 8850 533c be78 3f3c e48e 143c
00000040: d106 973b f210 123c b719 af3b 7ed7 733c
00000050: f111 0f3c ae8a 563c f254 303c bc10 413c
00000060: ceab 0b3c 194e 923c 255f ef3b 24d9 d93b
00000070: 160e 583c 1efa ab3b 34b4 123c a79a 4f3c
00000080: b5d6 4b3c 5369 0f3c 726d 293c 4eb6 2b3c
00000090: f166 733c 941e 2d3c 21ae 0b3c e752 323c
000000a0: 8d25 c83c eef7 363c 4411 d73b 64e2 bf3c
000000b0: 6fbc f83b ab2c 233c b623 cc3b 0abb ca3b
000000c0: ec21 613c f812 023c 8ac7 c73c 23dd 193c
000000d0: 09fd e23c a203 b23c 4aae 853c 6516 0e3c
000000e0: bab3 eb3b 1e60 ff3c d928 103c e9e5 093c
000000f0: 7ca9 a23c 1327 6f3c 5dcd 023c 0582 343c
00000100: 0b8a 7d3c 5752 313c e52a bc3b 55f4 0f3c
00000110: 20a6 df3b f9c1 da3b 1d4d 813c 5f86 813c
00000120: 1cca 343c 1a6a 043c f1b6 0e3c e84c 5c3c
00000130: 8ec9 403c 4ede 1f3c 74d6 4d3c 77ab 3d3c
00000140: 8f32 3e3c 5ba7 e33b ed93 4e3c 566d e43b
00000150: f015 313c 26b5 8a3c 3fc1 803c 720c 043c
00000160: fd02 393c 47e0 423c 1e57 743c 04cc 123c
00000170: e0a0 073c 6261 4b3c a800 883c ca97 413c
00000180: e03d da3b 4f47 0f3c 30b3 c73b 60a9 273c
00000190: a004 173c 4804 343c 3d3c 323c 20a7 213c
000001a0: eb36 bf3c 6e6b 323c 9fbc 193c 3faf db3b
000001b0: db1b 943c 688d 223c b479 213c 008d 753c
000001c0: fb21 283c b03e 8f3c 8ca5 cb3b 6a85 b33c
000001d0: a6e7 393c e2fc aa3b 4e83 c63b 7911 553c
000001e0: 40b5 b03b ccd6 123c e71c a73c 8c2f 843c
000001f0: 5f81 383c 168f 4c3c 2e09 af3c 40a4 333c

layer2.weight f4 [64, 128]
-0.0009387457 0.0025659783 0.007950084 -0.024791863 0.0022611152 -0.009215034 -0.004050783 0.0035003065
-0.012816758 0.0017120001 -0.004203653 -0.00033663397 0.013952299 0.0070955264 -0.0056265765 0.032938614
0.006198813 -0.0002465986 -0.018617278 0.005403023 0.0009818556 0.0135803735 0.010346578 -0.013501908
0.002614745 -0.009224493 0.019093085 -0.004557304 -0.004479803 -0.004700682 0.0001533618 -0.0032042933
-0.0018516397 -0.009672146 -0.0065030917 0.0058959555 -0.0059032976 -0.011183648 0.0050568087 0.0060495962
-0.00854178 0.0015003814 -0.003718643 -0.007043161 -0.0036244453 0.010358803 -0.0006640032 0.005216956
-0.0026323097 0.0047255075 -0.013427274 -0.0055301697 0.0007191752 0.0016543437 0.00566216 -0.009323085
-0.0017551892 -0.013311173 -0.03047381 0.0068254275 -0.001085049 -0.010166278 -0.00914848 -0.0068370732
0.0069940584 -0.0015118042 -0.00083540013 0.0013905521 -0.019251276 -0.0018986341 -0.01364378 0.0010950952
-0.01278652 -0.0033100822 -0.0080552725 -0.007936327 -0.0026397433 0.00022328332 -0.010047222 -0.011971542
-0.016122665 -0.003314234 -0.0054399814 -0.005790048 0.011679667 -0.005095774 -0.0052298345 -0.004809277
-0.0035964658 -0.0022283443 0.004668337 0.0028445602 0.0026361742 0.00017056012 0.018977484 -0.01730876
0.0034663351 -0.0010263071 -0.0061546406 0.0053076223 0.0011508536 0.0074554654 0.0017369718 0.0036274446
-0.006608697 0.0035762482 -0.0065913578 0.0056760027 -0.012939142 -0.014832196 -0.004681275 0.022022558
-0.001836137 -0.002140951 -0.008241245 -0.006982541 -0.0107821105 0.009349019 0.0017179158 -0.00853458
-0.014549434 0.005062202 -0.0030932184 -0.004791103 0.017172586 -0.017130995 -0.0034929153 -0.026595939
-0.0021359774 -0.012327075 0.0038943696 0.0061516697 0.0113454405 0.008324955 -0.0053155744 -0.012153454
-0.003734209 -0.0004291582 -0.027687432 0.006673874 0.0019604312 -0.0065511577 -0.004876465 -0.020753954
0.00777719 -0.0031293093 -0.0037614496 -0.005537013 0.021118999 0.011115924 -0.0029128597 -0.0028883724
0.0016923503 -0.0017747448 -0.00013260591 -0.0094821425 -0.0042300383 0.011742734 0.00024277487 -0.0108011905
0.00055124913 -0.013602272 -0.0059605474 -0.005378341 0.0048032603 -0.010169875 -0.005383595 -0.0073910207
-0.0040943604 -0.003157098 -0.0050546806 -0.009855774 -0.0051913904 0.016330482 0.00068411237 -0.0032653578
-0.021157494 0.004768651 0.0042089755 -0.004210592 -4.0018327e-05 -0.004878138 0.010718389 0.0008893621
-0.0010561757 -0.013546224 0.0029724564 -0.010747287 0.006348838 -0.0057951226 -0.0006182658 -0.011328892
-0.00013888159 -0.0032051126 -0.0026025118 0.011778115 -0.0036451726 0.009371438 0.00080126367 -0.0020107192
0.0049642427 -0.009017887 0.005793333 -0.008761876 0.007401688 0.0031543626 0.00091172854 -0.0036440413
-0.004172667 -0.0012595778 -0.0127195725 0.008046889 0.013327185 -0.004336936 -0.008395817 0.0042328797
0.0041633113 0.010018775 0.0073736063 -0.004163831 0.010748467 -0.010723376 0.0057160845 0.013242671
0.0082040075 -0.0036728864 0.008592896 -0.0044569215 0.014267242 0.0021294549 -0.010753286 0.002778399
-0.016072607 0.0048395535 -0.0064507667 -0.0061949114 -0.010628818 -0.0010492259 -0.006185981 0.00049358356
-0.0046901857 -0.008583879 -0.0033067435 -0.0070941523 -0.0018544969 0.008996609 0.001724556 0.008364557
0.0071256515 -0.008740666 -0.01343868 0.003087165 -0.022220694 -0.010758368 -0.011614345 0.00042552908
00000000: 2816 76ba f929 283b 1241 023c 4e18 cbbc
00000010: 382f 143b a7fa 16bc 6ebc 84bb 6665 653b
00000020: 61fd 51bc 3165 e03a ccbe 89bb 3f7e b0b9
00000030: 2f98 643c 9781 e83b 255f b8bb a4ea 063d
00000040: 6a1f cb3b e749 81b9 4383 98bc d80b b13b
00000050: 9bb1 803a 3780 5e3c b284 293c 1b37 5dbc
00000060: 245c 2b3b 5422 17bc 1a69 9c3c 7055 95bb
00000070: 50cb 92bb 2e08 9abb bfcf 2039 1fff 51bb
00000080: b8b2 f2ba ec77 1ebc e317 d5bb dc32 c13b
00000090: 7370 c1bb 9f3b 37bc 96b3 a53b b13b c63b
000000a0: d2f2 0bbc 72a8 c43a 7ab4 73bb 51ca e6bb
000000b0: 1a88 6dbb f8b7 293c 8010 2eba 00f3 aa3b
000000c0: d482 2cbb 6ed8 9a3b 12fe 5bbc 6d36 b5bb
000000d0: 0887 3c3a 90d6 d83a a489 b93b dabf 18bc
000000e0: 600e e6ba 1b17 5abc 36a4 f9bc d6a7 df3b
000000f0: 3438 8eba 7690 26bc 82e3 15bc 8709 e0bb
00000100: 6a2e e53b bb27 c6ba c1fe 5aba 3043 b63a
00000110: dab4 9dbc 97db f8ba 298a 5fbc 4c89 8f3a
00000120: 8d7e 51bc f7ed 58bb 43fa 03bc 5e07 02bc
00000130: 8bff 2cbb 2921 6a39 1a9d 24bc 4924 44bc
00000140: ae13 84bc 9f33 59bb df41 b2bb 71ba bdbb
00000150: 135c 3f3c 73fa a6bb 085f abbb 2497 9dbb
00000160: afb2 6bbb 6a09 12bb d9f8 983b cd6b 3a3b
00000170: aac3 2c3b 62d8 3239 ab76 9b3c 1acb 8dbc
00000180: 742b 633b 2785 86ba deac c9bb 90eb ad3b
00000190: 3dd8 963a fa4c f43b 1aab e33a 6cba 6d3b
000001a0: c58d d8bb 7d5f 6a3b 51fc d7bb c3fd b93b
000001b0: b2fe 53bc bd02 73bc 6265 99bb a768 b43c
000001c0: 89aa f0ba 334f 0cbb 4906 07bc cdcd e4bb
000001d0: 73a7 30bc a12c 193c b02b e13a 9fd4 0bbc
000001e0: c060 6ebc d4e0 a53b 98b7 4abb affe 9cbb
000001f0: 86ad 8c3c 4d56 8cbc 65e9 64bb badf d9bc
00000200: c1fb 0bbb 80f7 49bc ae38 7f3b f293 c93b
00000210: 3ae2 393c 6465 083c 452e aebb 481f 47bc
00000220: a2b9 74bb a300 e1b9 c1d0 e2bc 83b0 da3b
00000230: 947a 003b 18ab d6bb c1ca 9fbb 3204 aabc
00000240: ccd7 fe3b 1915 4dbb a782 76bb d56f b5bb
00000250: c001 ad3c 911f 363c ade5 3ebb d94a 3dbb
00000260: dad1 dd3a 8e9e e8ba 210c 0bb9 fd5a 1bbc
00000270: 229c 8abb 9964 403c 6291 7e39 7af7 30bc
00000280: b481 103a 10dc 5ebc b250 c3bb cb3c b0bb
00000290: ab64 9d3b 8c9f 26bc de68 b0bb 6030 f2bb
000002a0: fc29 86bb 51e7 4ebb bca1 a5bb 1d7a 21bc
000002b0: 8a1c aabb 81c7 853c 0156 333a 9dff 55bb
000002c0: 7b52 adbc 5842 9c3b 72eb 893b 01f9 89bb
000002d0: 5ad9 27b8 cad8 9fbb 2f9c 2f3c 1524 693a
000002e0: 606f 8aba fbf0 5dbc 8bcd 423b 6415 30bc
000002f0: ea09 d03b 03e5 bdbb 1e13 22ba d19c 39bc
00000300: bea0 11b9 de0c 52bb e78e 2abb fff8 403c
00000310: d9e3 6ebb a98a 193c e50b 523a 45c6 03bb
00000320: 16ab a23b c2bf 13bc 00d6 bd3b f98d 0fbc
00000330: dc89 f23b 6cb9 4e3b 1101 6f3a ded0 6ebb
00000340: deba 88bb 6b18 a5ba c165 50bc 19d7 033c
00000350: 445a 5a3c db1c 8ebb 9c8e 09bc f8b3 8a3b
00000360: 636c 883b ca25 243c 4b9e f13b bf70 88bb
00000370: 571a 303c 19b1 2fbc fe4d bb3b caf7 583c
00000380: 1a6a 063c cfb4 70bb 38c9 0c3c 5e0b 92bb
00000390: 26c1 693c 538e 0b3b 8d2e 30bc cd15 363b
000003a0: b3aa 83bc 1e95 9e3b f460 d3bb affe cabb
000003b0: 7e24 2ebc 2e86 89ba c5b3 cabb d563 013a
000003c0: 21b0 99bb 66a3 0cbc f3b5 58bb 1076 e8bb
000003d0: 9712 f3ba 8366 133c 7f0a e23a 7f0b 093c
000003e0: 4c7e e93b 0335 0fbc e92d 5cbc 0952 4a3b
000003f0: 2c08 b6bc de43 30bc 184a 3ebc 8c19 df39

layer2.bias f4 [64]
-2.9564431e-08 -5.7353837e-09 8.3850893e-10 5.474616e-09 -6.9139037e-09 2.5683995e-09 -7.540889e-09 -4.7214712e-08
-2.613914e-09 -6.094029e-09 -2.4698633e-07 -7.23928e-09 -8.099701e-09 -5.508581e-09 -1.2080204e-08 1.9791175e-09
5.1250037e-08 2.704988e-10 1.0154738e-08 -3.0211655e-07 2.9457462e-08 -2.993691e-08 9.9438315e-09 -1.0512203e-08
-8.573951e-09 -8.9908603e-10 -1.5866406e-09 -7.325365e-09 2.6958298e-07 -1.6371724e-08 -6.7338966e-09 -1.48505315e-08
-1.0470963e-08 1.3525308e-09 -5.037897e-09 1.577125e-08 -3.629917e-07 1.956263e-08 -2.834632e-09 5.0324744e-09
-9.354765e-09 -6.8696124e-08 -4.2324126e-09 5.232098e-10 5.422911e-10 -8.220865e-09 -2.2689983e-08 9.130614e-09
8.802231e-08 3.2670795e-07 -2.5514597e-09 1.4263771e-09 -6.514528e-09 -8.338564e-09 4.106704e-09 1.2037703e-10
-4.6151158e-08 -7.16561e-11 -2.994414e-09 -2.1648047e-08 -3.6471306e-09 -5.267183e-07 -1.6332844e-08 2.016684e-09
00000000: dff4 fdb2 f810 c5b1 d27c 6630 3b1b bc31
00000010: 578f edb1 c37f 3031 2e8d 01b2 20c9 4ab3
00000020: 76a0 33b1 a563 d1b1 8b99 84b4 61bd f8b1
00000030: dd26 0bb2 fe45 bdb1 4d89 4fb2 0101 0831
00000040: 031e 5c33 52b5 942f 0375 2e32 9532 a2b4
00000050: a509 fd32 fb93 00b3 6fd5 2a32 2899 34b2
00000060: a34c 13b2 8e23 77b0 f410 dab0 98b2 fbb1
00000070: 34bb 9034 cda1 8cb2 fb5f e7b1 5421 7fb2
00000080: c8e3 33b2 f2e3 b930 d019 adb1 5879 8732
00000090: 33e1 c2b4 ae0a a832 60cb 42b1 1dea ac31
000000a0: b1b6 20b2 1886 93b3 b26c 91b1 9ed1 0f30
000000b0: 5810 1530 bf3b 0db2 cde7 c2b2 dddc 1c32
000000c0: c706 bd33 6666 af34 c155 2fb1 2f0a c430
000000d0: 65d6 dfb1 6441 0fb2 f31a 8d31 1f5b 042f
000000e0: bc37 46b3 cc92 9dae 4ac6 4db1 8ff4 b9b2
000000f0: 00a1 7ab1 ce63 0db5 4e4c 8cb2 e195 0a31

bn2.weight f4 [64]
0.6989424 0.698359 0.7194349 0.6262045 0.69901663 0.71873266 0.6959178 0.7051157
0.72060484 0.6929138 0.7165227 0.67731947 0.6878715 0.67164767 0.68359613 0.6162551
0.7232041 0.7034425 0.693683 0.66112417 0.64782625 0.71679306 0.7145527 0.64109343
0.6734098 0.7221002 0.7072705 0.7173638 0.6764864 0.7070125 0.711486 0.6968097
0.66503173 0.72751415 0.6566439 0.70562226 0.6871295 0.6631811 0.7110821 0.66685605
0.6657524 0.63325065 0.69911295 0.6504424 0.6750448 0.7036177 0.70559865 0.6923863
0.71837175 0.625398 0.7028118 0.6952208 0.64727885 0.69381344 0.6888738 0.7030038
0.6619148 0.7281187 0.6642512 0.67892444 0.6971202 0.7094196 0.6338928 0.71786064
00000000: e4ed 323f a8c7 323f e32c 383f f04e 203f
00000010: c1f2 323f ddfe 373f ab27 323f 7682 343f
00000020: 8f79 383f cc62 313f 086e 373f cf64 2d3f
00000030: 5918 303f 1af1 2b3f 2800 2f3f e5c2 1d3f
00000040: e723 393f cf14 343f 3695 313f 6f3f 293f
00000050: f1d7 253f c07f 373f edec 363f b31e 243f
00000060: 9664 2c3f 8fdb 383f ae0f 353f 27a5 373f
00000070: 362e 2d3f c5fe 343f f223 363f 1f62 323f
00000080: 853f 2a3f 5e3e 3a3f d119 283f a9a3 343f
00000090: b8e7 2f3f 3dc6 293f 7a09 363f 14b7 2a3f
000000a0: c06e 2a3f b71c 223f 11f9 323f 6583 263f
000000b0: bccf 2c3f 4a20 343f 1da2 343f 3b40 313f
000000c0: 36e7 373f 151a 203f 79eb 333f fef9 313f
000000d0: 11b4 253f c29d 313f 095a 303f 0ff8 333f
000000e0: 4073 293f fd65 3a3f 5e0c 2a3f fecd 2d3f
000000f0: 7876 323f 869c 353f cc46 223f b7c5 373f

bn2.bias f4 [64]
0.21443233 0.24175264 0.014670822 0.19911706 0.22958045 0.15493686 0.211984 0.22142589
0.020245727 0.21877208 0.16068305 0.20966479 0.2096907 0.20310275 0.2559954 0.19649985
0.13665836 0.11552676 0.22569153 0.22378424 0.20807879 0.1781949 0.18750513 0.21038885
0.2462106 0.1551895 0.22157662 0.12518257 0.25255233 0.20598887 0.18741652 0.25231838
0.2167083 0.00039554722 0.20338802 0.2378541 0.2518214 0.21215491 0.2038798 0.23886536
0.23252667 0.18190603 0.23048818 0.2029029 0.23457772 0.22924688 0.08697505 0.2337911
0.050726768 0.20308729 0.2114612 0.24306814 0.19903 0.22374144 0.24236079 0.21913242
0.23705956 -0.006525768 0.21719998 0.22941974 0.25563625 0.022834808 0.22505876 0.13476282
00000000: 2694 5b3e 018e 773e e35d 703c 58e5 4b3e
00000010: 2317 6b3e c5a7 1e3e 5512 593e 78bd 623e
00000020: 5eda a53c ca05 603e 198a 243e 5eb2 563e
00000030: 29b9 563e 2bfa 4f3e d411 833e 4237 493e
00000040: 2bf0 0b3e 4b99 ec3d ae1b 673e b227 653e
00000050: 9b12 553e b978 363e 5801 403e 2d70 573e
00000060: a21e 7c3e ffe9 1e3e fbe4 623e dc2f 003e
00000070: 8a4e 813e bfee 523e 1eea 3f3e e02f 813e
00000080: c8e8 5d3e 7361 cf39 f344 503e 0690 733e
00000090: bcee 803e 233f 593e dec5 503e 1f99 743e
000000a0: 791b 6e3e 9345 3a3e 1805 6c3e c7c5 4f3e
000000b0: 2435 703e b2bf 6a3e fa1f b23d ef66 6f3e
000000c0: dfc6 4f3d 1df6 4f3e 4989 583e dbe6 783e
000000d0: 85ce 4b3e 7a1c 653e 6d2d 783e 4064 603e
000000e0: bebf 723e 1cd6 d5bb ac69 5e3e 02ed 6a3e
000000f0: c1e2 823e 1010 bb3c ce75 663e 44ff 093e

bn2.running_mean f4 [64]
-0.075703986 -0.048994895 0.0035732219 -0.09168181 -0.058193002 -0.07736822 0.03904154 -0.09695218
-0.00012172621 -0.09231273 -0.044036176 -0.07169244 0.020305783 -0.073884904 -0.059684675 -0.100526966
-0.042533908 -0.043096587 -0.08100001 -0.081191614 -0.08911125 0.048970424 -0.048240066 -0.07313669
-0.06614052 -0.064475074 0.0070300237 0.0029191254 -0.068570256 -0.06607222 -0.06917607 -0.065801576
-0.097642206 0.0021178876 -0.026638662 -0.046665512 -0.07667458 -0.07714271 -0.07298593 -0.073648706
-0.06276941 0.046108846 -0.05627 0.026196122 -0.059520017 0.014989308 -0.00855885 -0.05372848
-0.016570011 -0.09577601 -0.038738158 0.0017872066 -0.06904888 0.044105973 -0.063886434 0.0056550927
-0.04702729 0.008630503 -0.04794952 -0.04471808 -0.107281625 -0.03024957 -0.0608507 -0.015552872
00000000: b10a 9bbd dfae 48bd b72c 6a3b acc3 bbbd
00000010: c95b 6ebd 3b73 9ebd 06ea 1f3d dd8e c6bd
00000020: 4347 ffb8 750e bdbd 475f 34bd 7cd3 92bd
00000030: 5058 a63c f850 97bd eb77 74bd 15e1 cdbd
00000040: 0938 2ebd 0c86 30bd 55e3 a5bd ca47 a6bd
00000050: f67f b6bd 3695 483d 6097 45bd b0c8 95bd
00000060: ae74 87bd 820b 84bd 1d5c e63b cc4e 3f3b
00000070: 906e 8cbd df50 87bd 2fac 8dbd fac2 86bd
00000080: a3f8 c7bd 42cc 0a3b 5339 dabc 5624 3fbd
00000090: 9007 9dbd fffc 9dbd a679 95bd 22d5 96bd
000000a0: 408d 80bd a1dc 3c3d 5f7b 66bd 4099 d63c
000000b0: 43cb 73bd b795 753c 6b3a 0cbc 6512 5cbd
000000c0: d5bd 87bc 3626 c4bd e7ab 1ebd b440 ea3a
000000d0: 8069 8dbd 77a8 343d e4d6 82bd 5b4e b93b
000000e0: b09f 40bd f466 0d3c b766 44bd 4e2a 37bd
000000f0: 78b6 dbbd f2cd f7bc 953e 79bd 79d1 7ebc

bn2.running_var f4 [64]
0.010246542 0.011177881 0.011350763 0.0107047055 0.0106588835 0.008417051 0.016082829 0.012305854
0.0122465 0.010631494 0.0112046115 0.012097812 0.012419011 0.011661575 0.014073207 0.013615232
0.010663365 0.0071700523 0.009160015 0.012168209 0.009507985 0.013821838 0.01082669 0.011402083
0.016312983 0.00976701 0.012214749 0.0084602805 0.016049594 0.0077347797 0.01060928 0.0093433745
0.012825318 0.012519764 0.011285254 0.008587094 0.015569227 0.008142666 0.008063198 0.010689498
0.01365779 0.017970312 0.011096986 0.017095823 0.009739478 0.01232939 0.0056353398 0.012439683
0.009372598 0.010417918 0.01335098 0.010215687 0.012327529 0.01685905 0.008562613 0.013566935
0.014937732 0.009876364 0.013028278 0.01308999 0.009627869 0.010786673 0.019696422 0.0089970445
00000000: 1de1 273c 6e23 373c 8df8 393c ca62 2f3c
00000010: 99a2 2e3c ace7 093c 23c0 833c 7e9e 493c
00000020: 8ba5 483c b82f 2e3c 8c93 373c e735 463c
00000030: 1c79 4b3c 3110 3f3c 4f93 663c 6c12 5f3c
00000040: 65b5 2e3c c2f2 ea3b e313 163c 2b5d 473c
00000050: 61c7 1b3c fe74 623c 6e62 313c cdcf 3a3c
00000060: cea2 853c cf05 203c 5f20 483c fd9c 0a3c
00000070: 707a 833c 0974 fd3b 8cd2 2d3c f414 193c
00000080: 4821 523c b21f 4d3c c9e5 383c e2b0 0c3c
00000090: 1216 7f3c d168 053c 811b 043c 0123 2f3c
000000a0: ecc4 5f3c 7a36 933c 22d0 353c 8a0c 8c3c
000000b0: 5592 1f3c 3601 4a3c a8a8 b83b d0cf 4b3c
000000c0: 868f 193c eaaf 2a3c 12be 5a3c b25f 273c
000000d0: 67f9 493c fe1b 8a3c 344a 0c3c da47 5e3c
000000e0: 64bd 743c 79d0 213c 8f74 553c 6677 563c
000000f0: 36be 1d3c 96ba 303c 645a a13c 5768 133c

output.weight f4 [14, 64]
-0.0334842 -0.042632457 0.14213555 -0.18633685 -0.124767736 -0.20010905 -0.15462168 -0.11410668
-0.056517474 -0.058357507 -0.044248555 -0.08565477 -0.020929169 -0.073981784 -0.10901419 -0.18146
-0.09017864 -0.14221293 -0.21720426 -0.1652225 -0.17115933 -0.0454701 -0.045263853 -0.14910685
-0.074050315 -0.043330293 -0.15026592 0.012252413 -0.052126825 -0.118051775 -0.09301482 -0.06958776
-0.096559495 0.06680725 -0.16200393 -0.13734972 -0.077291146 -0.18324226 -0.07085406 -0.12523262
-0.13359419 -0.14630355 -0.09855071 -0.13745596 -0.12416191 -0.13461028 0.05173358 -0.13380347
0.10485164 -0.1643113 -0.094304055 -0.111506715 -0.14691757 -0.14991923 -0.11202988 -0.1207792
-0.057029106 0.12715378 -0.12949699 -0.10652632 -0.11342656 0.07359384 -0.07826603 -0.15424666
-0.041884955 -0.18129149 0.037251316 -0.16786177 -0.108876355 -0.055348534 -0.15046565 -0.03968759
0.13397072 0.0012197531 -0.14042376 -0.1175421 -0.1076382 -0.13330248 -0.16256422 -0.17339128
0.0645083 0.06339548 -0.079800166 -0.08144545 -0.15156646 -0.092696615 -0.13495137 -0.03631183
-0.14438216 -0.064737074 -0.113390565 -0.17300776 -0.15033184 0.05840816 -0.07233552 -0.075790346
-0.1688002 0.13396828 -0.07268191 -0.09437625 -0.058480315 -0.11193405 -0.10961878 -0.16591053
-0.1413322 -0.10089639 -0.15698715 -0.08852101 -0.1689051 -0.12741739 -0.0069436166 -0.16393697
-0.09758692 -0.15937743 -0.19093893 -0.10141687 -0.1693394 -0.15259033 -0.124855675 -0.12985542
-0.07491866 0.004213604 -0.075063616 -0.08265763 -0.13826275 0.17178877 -0.14074484 0.009545737
0.012979826 -0.11230271 -0.02069621 -0.1604037 -0.06942127 -0.02416165 -0.052074984 -0.0061623235
0.12859988 -0.12761158 -0.16240287 -0.13991529 -0.16915531 -0.13706082 -0.12138797 -0.10612654
0.016069155 0.038970817 -0.07554727 -0.12449233 -0.14328231 -0.15607953 -0.10462291 -0.14702563
-0.14047395 0.00087103964 -0.054842256 -0.06394001 -0.10333309 -0.10448979 -0.0743707 -0.17576407
-0.15913874 0.07502397 -0.11868314 -0.051939696 -0.14666663 -0.14759345 -0.16724685 -0.14415137
-0.084049135 -0.16448998 -0.16469336 -0.13071328 -0.11416967 -0.15030189 -0.0417502 -0.10250892
-0.04941613 -0.073395 -0.12769179 -0.09401949 -0.120290354 -0.10847822 -0.09627074 -0.10484346
-0.10654606 0.007384416 -0.15204456 -0.049541276 -0.13209146 0.05890575 -0.12905091 -0.0055170096
-0.20238155 -0.15900508 0.081161484 -0.16971205 -0.13928558 -0.047535717 -0.14630039 -0.12167066
0.02474449 0.14673999 0.06349581 -0.023646438 0.032676455 -0.09534837 -0.11038436 -0.16960242
0.1932772 0.15900011 0.024788486 -0.16410503 -0.15801515 -0.12520462 -0.08394839 -0.123918876
-0.1618008 -0.07332315 -0.18570358 0.00690996 -0.108822 0.11868053 -0.16893157 -0.088773
-0.13455974 0.1080117 -0.13615915 -0.14830887 -0.16379191 -0.1617132 -0.16992262 -0.16546565
-0.103731126 -0.12136488 -0.15453626 -0.14796235 -0.13980298 -0.010266145 -0.13577738 0.0237114
0.14441796 -0.07795771 0.044293102 -0.029022085 -0.16193734 -0.15447621 -0.08649967 -0.03465558
-0.19358833 0.053930238 -0.15666197 -0.21073107 0.0361336 0.046986725 -0.15477404 0.112882525
00000000: ba26 09bd 5f9f 2ebd fb8b 113e 16cf 3ebe
00000010: 3a86 ffbd 63e9 4cbe 2555 1ebe c3b0 e9bd
00000020: de7e 67bd 4808 6fbd f93d 35bd c56b afbd
00000030: a673 abbc c383 97bd d542 dfbd a6d0 39be
00000040: 94af b8bd 44a0 11be cb6a 5ebe 1630 29be
00000050: 6444 2fbe db3e 3abd 9766 39bd 77af 18be
00000060: b1a7 97bd 1b7b 31bd 4fdf 19be 58be 483c
00000070: f082 55bd 21c5 f1bd 8e7e bebd 0784 8ebd
00000080: fcc0 c5bd 3dd2 883d 5ce4 25be 68a5 0cbe
00000090: d24a 9ebd dca3 3bbe ef1b 91bd fb3c 00be
000000a0: eacc 08be 99d0 15be f4d4 c9bd 41c1 0cbe
000000b0: 9948 febd 47d7 09be 97e6 533d c703 09be
000000c0: 75bc d63d 3941 28be 7c22 c1bd a25d e4bd
000000d0: 8f71 16be 6d84 19be ec6f e5bd 165b f7bd
000000e0: 5a97 69bd 9a34 023e dc9a 04be 792a dabd
000000f0: 2f4c e8bd 5eb8 963d f149 a0bd d6f2 1dbe
00000100: 8f8f 2bbd 7aa4 39be d694 183d f5e3 2bbe
00000110: 91fa debd 25b5 62bd ab13 1abe 748f 22bd
00000120: 9f2f 093e 1fe0 9f3a 3fcb 0fbe eab9 f0bd
00000130: 6b71 dcbd 7280 08be 3c77 26be 7c8d 31be
00000140: ed1c 843d 7dd5 813d 456e a3bd dfcc a6bd
00000150: 3d34 1bbe b9d7 bdbd b130 0abe b7bb 14bd
00000160: ebd8 13be df94 84bd 5039 e8bd f228 31be
00000170: 97f0 19be 653d 6f3d a524 94bd f837 9bbd
00000180: f6d9 2cbe fb2e 093e 41da 94bd 5648 c1bd
00000190: 0e89 6fbd ae3d e5bd d07f e0bd 73e4 29be
000001a0: 63b9 10be c4a2 cebd 3dc1 20be 814a b5bd
000001b0: 75f5 2cbe b479 02be 4787 e3bb 18df 27be
000001c0: a7db c7bd d633 23be 7f85 43be a6b3 cfbd
000001d0: 4f67 2dbe a440 1cbe 55b4 ffbd d2f8 04be
000001e0: f46e 99bd 4612 8a3b f4ba 99bd 6748 a9bd
000001f0: c094 0dbe 65e9 2f3e 6a1f 10be b965 1c3c
00000200: 56a9 543c f7fe e5bd 198b a9bc de40 24be
00000210: bd2c 8ebd a7ee c5bc 944c 55bd 51ed c9bb
00000220: b0af 033e 9cac 02be f04c 26be f445 0fbe
00000230: 0d37 2dbe ac59 0cbe 429a f8bd df58 d9bd
00000240: 76a3 833c dd9f 1f3d 87b8 9abd d6f5 febd
00000250: 99b8 12be 50d3 1fbe 8944 d6bd e38d 16be
00000260: 67d8 0fbe 7b56 643a 46a2 60bd fbf2 82bd
00000270: 4da0 d3bd befe d5bd aa4f 98bd 7ffb 33be
00000280: 44f5 22be 2ba6 993d 2510 f3bd b8be 54bd
00000290: c72f 16be bd22 17be c242 2bbe 6b9c 13be
000002a0: f421 acbd 1070 28be 60a5 28be b4d9 05be
000002b0: cad1 e9bd bde8 19be 4202 2bbd 32f0 d1bd
000002c0: 9168 4abd 1e50 96bd a3c1 02be 4a8d c0bd
000002d0: ca5a f6bd d429 debd 9829 c5bd 2bb8 d6bd
000002e0: d234 dabd f9f8 f13b 92b1 1bbe cbeb 4abd
000002f0: fc42 07be 2847 713d ec25 04be 08c8 b4bb
00000300: 1c3d 4fbe 3ad2 22be fe37 a63d ffc8 2dbe
00000310: e1a0 0ebe d0b4 42bd c5cf 15be 782e f9bd
00000320: f5b4 ca3c 0243 163e 170a 823d 2db6 c1bc
00000330: bfd7 053d 0246 c3bd 3211 e2bd 42ac 2dbe
00000340: 75ea 453e edd0 223e 3911 cb3c 260b 28be
00000350: b9ce 21be a435 00be 22ed abbd 2ec9 fdbd
00000360: 1caf 25be 732a 96bd 1429 3ebe f26c e23b
00000370: 12de debd c70e f33d 66fc 2cbe 9ece b5bd
00000380: 07ca 09be 3d35 dd3d 4e6d 0bbe 48de 17be
00000390: 11b9 27be 2598 25be 3200 2ebe d46f 29be
000003a0: fc70 d4bd 268e f8bd c13e 1ebe 7183 17be
000003b0: 8328 0fbe 5533 28bc 3a09 0bbe 693e c23c
000003c0: 4de2 133e 4ba8 9fbd af6c 353d b9bf edbc
000003d0: e7d2 25be 032f 1ebe bd26 b1bd 02f3 0dbd
000003e0: 053c 46be f4e5 5c3d ff6b 20be e3c9 57be
000003f0: d300 143d 2775 403d 167d 1ebe f42e e73d

output.bias f4 [14]
-0.07373987 -0.013609032 -0.10672811 -0.0918557 -0.10831767 -0.097048186 -0.11998148 -0.16713025
-0.0545653 -0.11164696 -0.08682841 -0.08832412 -0.07437065 -0.17186958
00000000: ee04 97bd 6bf8 5ebc 4494 dabd d71e bcbd
00000010: a8d5 ddbd 33c1 c6bd dab8 f5bd 3124 2bbe
00000020: dd7f 5fbd 29a7 e4bd 18d3 b1bd 47e3 b4bd
00000030: a44f 98bd 94fe 2fbe
